models/model.pkl (torch, 208687 bytes, 10 tensors)

lstm.weight_ih_l0 f4 [128, 300]
0.0648275 0.06926738 -0.058155082 0.047579676 -0.088396035 0.051281348 -0.15286782 -0.09582935
-0.013815165 0.07191414 0.022327736 0.06420387 -0.023098469 0.0071197003 0.09669785 -0.1617334
-0.09168225 -0.090242825 -0.08895301 0.09733565 0.09925048 -0.061405577 -0.039868057 -0.122356385
0.052614987 -0.1301623 -0.16413508 -0.121692784 0.044622526 0.010374904 0.14673544 0.037192404
-0.0785338 -0.0026992708 0.15319799 -0.13578299 -0.031587377 0.07476117 0.16606475 -0.045489743
-0.11757719 0.13515772 0.024981275 0.026995376 0.1193967 -0.06903506 0.088609114 -0.015535057
0.16482712 0.14322923 -0.10291489 0.09926681 0.08865027 0.1491905 -0.13291577 -0.027793273
-0.10442128 -0.038122028 0.13511573 -0.051424354 -0.10889696 -0.027427182 0.12777616 -0.023185417
-0.02574405 0.08049284 0.13615377 -0.060505442 0.06382318 0.17292906 -0.16990933 -0.15823548
-0.16731799 0.064933226 -0.09440519 0.05834335 0.0027422607 -0.02400583 -0.140571 -0.04206392
-0.007548794 0.083692774 -0.13448657 -0.106014475 0.1407788 0.0042462796 -0.09541372 -0.114644885
0.048853755 0.15203176 0.058801234 0.16536249 -0.06579066 0.08444537 0.090673015 -0.10162509
-0.07547188 -0.081699856 0.042951033 0.034027368 -0.08265302 -0.064216726 -0.015033469 -0.009218007
0.1382019 -0.1640078 0.102516666 -0.017581835 0.13799576 -0.07899795 -0.08824707 0.10089977
0.061322376 0.15896077 0.060536936 -0.05955775 0.12975271 -0.1451216 0.11933805 0.031991094
-0.06902461 -0.035889283 -0.049199864 -0.07344459 0.084372714 0.1447397 -0.11815883 0.02634953
0.061742872 0.014306635 0.12991522 0.019624084 0.11097841 -0.0007636994 0.17495967 -0.039125755
0.043965355 -0.058434494 -0.043429077 -0.15076122 -0.14033876 -0.17229943 0.06553991 -0.0052196532
-0.054250665 -0.12835564 -0.104970984 0.14713253 -0.08313801 0.018230751 -0.015821144 0.08529909
0.15051751 -0.16286412 -0.044688687 0.1521637 0.13001008 0.0013128966 -0.08716272 0.090867564
-0.06740876 -0.033308253 0.13586964 0.047042906 0.1511666 0.12999268 -0.08445181 0.06372319
-0.15147966 -0.15169516 -0.11601548 -0.14906733 0.15211 0.0058094114 -0.014942914 0.022579461
-0.060432658 0.136191 0.11368419 -0.034845218 0.12807839 0.018317267 0.10361011 -0.046301678
0.15116231 0.08843286 0.014277816 -0.049134716 -0.050653964 0.06609443 0.06759302 -0.02391012
-0.045421466 0.07345112 -0.11874145 -0.073392496 -0.15534504 0.10258849 -0.07933533 -0.037574172
0.03370355 -0.0785923 -0.07004537 0.07049334 -0.16113532 -0.080410644 0.09668629 -0.012787506
0.014038354 0.03231527 0.1523592 -0.00065258145 0.12169354 -0.12145036 -0.16882572 -0.08851803
0.0148860365 -0.10128726 -0.0667817 0.0049811453 0.1530159 -0.13354544 -0.047255486 0.14042877
-0.10801262 0.10584591 0.05125487 -0.1747693 0.071919724 0.12849323 0.027263284 -0.0908701
-0.05469662 0.03347294 -0.09266743 -0.13594647 -0.068696834 -0.14605132 0.08402713 -0.073379576
0.007552415 0.0020798594 -0.082782604 0.019817278 0.04506497 -0.006647438 -0.06685883 -0.01313068
-0.013637334 0.0716566 0.05247751 -0.17399237 -0.076478936 0.08256109 0.106117204 -0.09163958
00000000: 48c4 843d 0edc 8d3d 0634 6ebd e8e2 423d
00000010: fb08 b5bd 640c 523d 6289 1cbe 2e42 c4bd
00000020: 0059 62bc b847 933d a8e8 b63c 527d 833d
00000030: 0039 bdbc 604c e93b 8609 c63d 719d 25be
00000040: e7c3 bbbd 3bd1 b8bd ff2c b6bd ea57 c73d
00000050: d643 cb3d 6a84 7bbd b04c 23bd fc95 fabd
00000060: d082 573d 4449 05be 0713 28be 113a f9bd
00000070: 1cc6 363d 80fb 293c d141 163e 1057 183d
00000080: 54d6 a0bd 40e6 30bb efdf 1c3e b20a 0bbe
00000090: c461 01bd 621c 993d e10c 2a3e 7453 3abd
000000a0: 4fcc f0bd c966 0a3e 88a5 cc3c 6825 dd3c
000000b0: 4286 f43d 4162 8dbd b278 b53d c086 7ebc
000000c0: 71c8 283e afaa 123e 0bc5 d2bd 664c cb3d
000000d0: 468e b53d 65c5 183e 121b 08be b8ae e3bc
000000e0: d3da d5bd d825 1cbd c75b 0a3e 58a2 52bd
000000f0: 5f05 dfbd f8ae e0bc c1d7 023e 58ef bdbc
00000100: 30e5 d2bc 6ed9 a43d e56b 0b3e 8ed4 77bd
00000110: bab5 823d 5114 313e b6fc 2dbe 7b08 22be
00000120: 6855 2bbe b6fb 843d 8257 c1bd 70f9 6e3d
00000130: 80b7 333b e0a7 c4bc d8f1 0fbe 384b 2cbd
00000140: e05b f7bb 1e67 ab3d d9b6 09be 1e1e d9bd
00000150: 5128 103e 6024 8b3b 4568 c3bd f0ca eabd
00000160: e01a 483d 37ae 1b3e 90d9 703d c954 293e
00000170: 41bd 86bd b2f1 ac3d c6b2 b93d d120 d0bd
00000180: 0091 9abd 4152 a7bd 6ced 2f3d 4860 0b3d
00000190: fd45 a9bd 0f84 83bd f04e 76bc 2007 17bc
000001a0: cd84 0d3e a9f1 27be 42f4 d13d c807 90bc
000001b0: c34e 0d3e adc9 a1bd e1ba b4bd 8aa4 ce3d
000001c0: 2c2d 7b3d 9dc6 223e 94f5 773d d4f2 73bd
000001d0: e5dd 043e c29a 14be 8267 f43d 1809 033d
000001e0: c65c 8dbd a400 13bd cc85 49bd 1e6a 96bd
000001f0: 9acb ac3d a536 143e 42fd f1bd f8da d73c
00000200: 18e6 7c3d 6066 6a3c 7f08 053e b0c2 a03c
00000210: a648 e33d 0033 48ba a128 333e 5442 20bd
00000220: 0415 343d 0259 6fbd b0e2 31bd 2661 1abe
00000230: f7b4 0fbe 436f 30be ca39 863d a009 abbb
00000240: f235 5ebd a96f 03be 07fb d6bd e9a9 163e
00000250: 4344 aabd a858 953c 589b 81bc 4ab1 ae3d
00000260: 4321 1a3e dac5 26be 7c0b 37bd cdd0 1b3e
00000270: 5d21 053e 8015 ac3a 5e82 b2bd c618 ba3d
00000280: 9b0d 8abd 3c6e 08bd 6921 0b3e 10b0 403d
00000290: 6bcb 1a3e cd1c 053e 12f5 acbd 4e81 823d
000002a0: 7c1d 1bbe fa55 1bbe 8699 edbd 1ba5 18be
000002b0: b9c2 1b3e e05c be3b 20d3 74bc 90f8 b83c
000002c0: 3c88 77bd a775 0b3e 42d3 e83d dcb9 0ebd
000002d0: fb26 033e 180e 963c 8a31 d43d d4a6 3dbd
000002e0: 4bca 1a3e 4a1c b53d 80ed 693c 7c41 49bd
000002f0: 887a 4fbd 845c 873d 366e 8a3d 28df c3bc
00000300: dc0b 3abd 8a6d 963d b82e f3bd ce4e 96bd
00000310: c512 1fbe ea19 d23d 907a a2bd 60e7 19bd
00000320: bc0c 0a3d 00f5 a0bd f273 8fbd d05e 903d
00000330: a800 25be 56ae a4bd 7603 c63d b082 51bc
00000340: 2001 663c 045d 043d 0d04 1c3e 0012 2bba
00000350: 763a f93d f7ba f8bd a6e0 2cbe f148 b5bd
00000360: 90e4 733c b26f cfbd d8c4 88bd e038 a33b
00000370: 33b0 1c3e 23c0 08be f88e 41bd 8fcc 0f3e
00000380: b835 ddbd bec5 d83d a0f0 513d b9f6 32be
00000390: a64a 933d bb93 033e 4057 df3c 1a1a babd
000003a0: 9009 60bd ec1a 093d 6cc8 bdbd 8d35 0bbe
000003b0: edb0 8cbd 7a8e 15be 6a16 ac3d 0848 96bd
000003c0: 407a f73b 404e 083b ed89 a9bd d857 a23c
000003d0: 0c96 383d c0d2 d9bb 48ed 88bd 1022 57bc
000003e0: 206f 5fbc b2c0 923d a8f2 563d 0e2b 32be
000003f0: fda0 9cbd ca15 a93d fa53 d93d 88ad bbbd

lstm.weight_hh_l0 f4 [128, 32]
0.0027741492 0.111781225 -0.072663255 0.17065103 0.106890425 0.06888306 -0.16006377 0.10550727
-0.039424226 0.113416865 0.1453786 0.011078998 -0.035706088 -0.051582366 0.13829885 -0.104662485
-0.12561122 -0.12881204 0.12588622 -0.10197059 0.107499406 0.035693765 0.1498322 0.15305011
0.1431923 -0.042680115 0.030908912 0.10240437 0.08075033 0.17376463 0.043178096 0.008549735
-0.10800372 -0.055299804 -0.07811366 0.13182424 0.1608813 0.029864281 0.1281967 -0.17017978
-0.07331069 0.018408895 0.11012755 0.07391332 0.05377814 -0.134211 0.14223354 -0.11843926
0.16106339 0.12724473 -0.06434793 0.16928111 0.059420273 0.06707539 0.058589026 -0.077388294
-0.16328818 0.16641288 -0.161591 0.043338016 -0.17608039 0.03100489 0.11954175 -0.027815029
0.12890445 0.08043377 -0.15916911 0.13925372 -0.1580271 0.031470925 0.06042941 0.16836815
-0.012972802 0.016705036 -0.002735123 -0.14049819 -0.015268564 -0.05235026 -0.014548823 -0.095029995
-0.043201104 0.0091962665 0.06803511 0.019809425 -0.030779213 0.025311545 0.114219025 0.11520459
0.015381709 0.0061181784 0.0045280308 -0.0136437565 0.058682486 0.12420182 -0.019670635 0.030601963
0.15493123 -0.099979386 0.021263808 0.02839616 -0.15331636 -0.08891162 0.14131261 -0.029169098
-0.17316157 0.079178914 -0.079621695 0.1418807 -0.17532648 -0.062207058 0.060399994 -0.0043548197
0.13813926 -0.1421872 -0.12670733 0.11006956 -0.123360574 0.02217868 -0.1469149 0.0843655
0.08163948 -0.10965497 -0.10775126 -0.046591535 -0.09855785 0.017560363 0.14018969 -0.06827035
0.12069054 0.046213865 0.08767195 0.057604 0.080917284 0.15120293 0.05654785 -0.074391715
-0.05732254 -0.17633814 0.15246706 -0.17567103 -0.116798736 0.08788772 0.17192124 0.025628656
0.06819476 -0.17492227 -0.059937835 -0.05313295 -0.11160359 -0.13529143 0.041380033 0.05958727
-0.15988462 -0.12267813 -0.019475386 0.03479463 -0.100826345 0.06126696 -0.03632538 0.08822064
-0.13420033 0.16084264 0.0497517 -0.02459994 0.09306942 -0.10042414 0.1225604 0.063127324
0.15645166 -0.09755392 -0.17550123 0.1056575 -0.015630975 0.05033131 0.036994338 0.086119875
-0.07454129 -0.10558247 -0.16896829 0.0075991154 -0.038068354 -0.17357627 -0.17495121 -0.0065598786
-0.101538226 0.08225511 0.16774143 -0.04857233 0.142843 -0.12948355 -0.088403076 0.14951955
-0.15945193 -0.08603179 0.0045811683 -0.15464467 -0.13168113 -0.159593 -0.035816684 -0.05936487
0.025079265 0.049707532 -0.08477533 -0.09811261 -0.047502592 0.046420038 0.029884726 0.10326411
0.06204517 -0.051907256 -0.07391977 -0.02786161 -0.00794594 0.10914923 0.06631079 -0.12975484
-0.0919464 0.010709301 -0.0462576 -0.1560941 0.17619206 0.17276399 0.025289357 -0.02156052
0.11174102 -0.09139567 0.15724088 -0.04690285 -0.11411089 -0.007031545 0.1009772 -0.09907343
-0.014425069 -0.16895115 -0.13336293 -0.037713617 0.14526491 0.12468828 -0.112891406 -0.14656214
0.032354116 0.12345053 -0.08822842 0.11675598 -0.17189355 0.09936042 -0.028931707 -0.16019681
-0.07968026 0.04271522 -0.08052339 -0.09975131 0.17672099 -0.03109105 0.01037398 0.10377975
00000000: 80ce 353b 8eed e43d 79d0 94bd 25bf 2e3e
00000010: 5ee9 da3d 9012 8d3d c2e7 23be 3214 d83d
00000020: 4c7b 21bd 1a47 e83d 21de 143e b084 353c
00000030: 8c40 12bd 0848 53bd 379e 0d3e 4959 d6bd
00000040: 3aa0 00be 4ee7 03be 51e8 003e f5d5 d0bd
00000050: a628 dc3d a033 123d 9d6d 193e 2bb9 1c3e
00000060: 01a1 123e 58d1 2ebd b034 fd3c 62b9 d13d
00000070: 6e60 a53d 5bef 313e 84db 303d 3014 0c3c
00000080: 0e31 ddbd 0c82 62bd 0efa 9fbd effc 063e
00000090: 11be 243e f0a5 f43c ff45 033e 9c43 2ebe
000000a0: ea23 96bd 40ce 963c 8e8a e13d de5f 973d
000000b0: 7846 5c3d 9c6e 09be aba5 113e 4890 f2bd
000000c0: cded 243e 714c 023e d9c8 83bd 0758 2d3e
000000d0: ac62 733d d25e 893d 0cfb 6f3d c17d 9ebd
000000e0: 0435 27be 2368 2a3e 1c78 25be 3483 313d
000000f0: 6b4e 34be f8fd fd3c 4ed2 f43d 58dc e3bc
00000100: 87ff 033e 76ba a43d 3afd 22be 8798 0e3e
00000110: dbd1 21be a8e7 003d d484 773d b368 2c3e
00000120: e08b 54bc 00d9 883c c03f 33bb c2de 0fbe
00000130: 0029 7abc 3a6d 56bd 305e 6ebc 169f c2bd
00000140: a4f3 30bd f0ab 163c fe55 8b3d 6047 a23c
00000150: b024 fcbc 285a cf3c aaeb e93d 62f0 eb3d
00000160: 9003 7c3c 007b c83b e05f 943b 108a 5fbc
00000170: 0c5d 703d 865d fe3d 5024 a1bc f8b0 fa3c
00000180: 4ba6 1e3e fec1 ccbd 7031 ae3c 109f e83c
00000190: f7fe 1cbe 4c17 b6bd 41b4 103e 08f4 eebc
000001a0: 4451 31be 8e28 a23d b310 a3bd 2d49 113e
000001b0: c988 33be d4cc 7ebd fc65 773d e0b2 8ebb
000001c0: 6174 0d3e 8599 11be 91bf 01be 266c e13d
000001d0: 78a4 fcbd 10b0 b53c dc70 16be d2c7 ac3d
000001e0: 9a32 a73d c992 e0bd b1ac dcbd c4d6 3ebd
000001f0: b3d8 c9bd c0da 8f3c e38d 0f3e 53d1 8bbd
00000200: 9a2c f73d c04a 3d3d 5a8d b33d 2cf2 6b3d
00000210: f6b7 a53d f1d4 1a3e b89e 673d af5a 98bd
00000220: 0acb 6abd fc91 34be 5320 1c3e 1be3 33be
00000230: 2d34 efbd 7afe b33d 1f0c 303e 30f3 d13c
00000240: b2a9 8b3d d31e 33be 6081 75bd f0a1 59bd
00000250: 6c90 e4bd d689 0abe 1c7e 293d c811 743d
00000260: cbb8 23be ac3e fbbd d88a 9fbc d084 0e3d
00000270: 0b7e cebd 10f3 7a3d ecc9 14bd 06ad b43d
00000280: d06b 09be efb3 243e 70c8 4b3d d085 c9bc
00000290: 2e9b be3d 2cab cdbd f200 fb3d e648 813d
000002a0: dd34 203e 59ca c7bd 98b6 33be f662 d83d
000002b0: 880c 80bc 3428 4e3d 6087 173d 9e5f b03d
000002c0: 1ba9 98bd 9f3b d8bd 0606 2dbe 0002 f93b
000002d0: 90ed 1bbd fabd 31be 6926 33be 40f4 d6bb
000002e0: 46f3 cfbd 5e75 a83d 69c4 2b3e c8f3 46bd
000002f0: 6f45 123e 5697 04be ac0c b5bd a71b 193e
00000300: 5e47 23be 6f31 b0bd a01d 963b 2c5b 1ebe
00000310: 6bd7 06be 596c 23be 84b4 12bd 9428 73bd
00000320: 0873 cd3c 209a 4b3d b09e adbd 44ef c8bd
00000330: 1492 42bd f022 3e3d d0d0 f43c 227c d33d
00000340: 1423 7e3d b49c 54bd 4063 97bd 083e e4bc
00000350: b02f 02bc a289 df3d f4cd 873d 74de 04be
00000360: 654e bcbd 1076 2f3c 9c78 3dbd 22d7 1fbe
00000370: b16b 343e 0be9 303e a02b cf3c b09f b0bc
00000380: 7ad8 e43d a72d bbbd c103 213e 341d 40bd
00000390: f8b2 e9bd e068 e6bb 22cd ce3d 03e7 cabd
000003a0: 2057 6cbc 8801 2dbe 4b90 08be 9879 1abd
000003b0: 53c0 143e 925c ff3d 9c33 e7bd 6314 16be
000003c0: c085 043d a2d3 fc3d 1ab1 b4bd c21d ef3d
000003d0: dd04 30be 7a7d cb3d 3002 edbc a20a 24be
000003e0: 672f a3bd 28f6 2e3d 72e9 a4bd 6a4a ccbd
000003f0: 59f6 343e a8b2 febc a0f7 293c 7a8a d43d

lstm.bias_ih_l0 f4 [128]
0.0023768246 -0.038188815 -0.058523677 -0.0820428 0.017664552 0.09520064 -0.090204984 0.08352788
-0.01828821 0.1411062 0.0029239953 0.13719319 -0.02922441 0.019606754 -0.051448658 -0.1675779
-0.08247057 0.17511548 0.17215313 -0.06380658 0.11620937 0.164434 -0.13651237 0.08524607
0.13773821 0.15967564 -0.091416515 -0.13561985 -0.122428015 0.11093183 0.098738745 0.052491665
-0.013795689 -0.09854656 -0.02610904 0.035483137 -0.14157133 0.13177107 -0.17271651 0.09269853
0.12766431 -0.114773765 0.13117816 0.099599704 0.0861993 -0.15738556 0.07127729 -0.03170587
-0.12760556 0.07509832 -0.14905883 -0.05232192 -0.026517048 -0.11230782 -0.08546972 0.12807028
-0.0062262863 -0.02094324 -0.17142358 -0.13485122 0.09061493 0.16514955 0.16434751 -0.027513102
-0.15920907 -0.07304133 0.11316247 -0.127581 -0.058143303 -0.052785173 0.044803366 -0.10628735
0.07271285 0.024104774 -0.0034224242 -0.063917845 -0.12653084 -0.058886036 1.770258e-05 0.046300948
0.03728339 -0.17146257 0.10980199 0.05072224 -0.08295193 -0.11033193 -0.10679318 -0.09046688
-0.16251668 0.16820334 0.073953465 -0.14801407 0.09705524 -0.14627318 -0.045146674 0.10985093
0.12875484 0.1266811 -0.12992492 -0.12077668 -0.087018676 0.13367473 0.1083398 -0.12276962
-0.1509345 0.07685222 -0.0088727325 -0.17115603 -0.13597816 0.03783171 -0.031413496 -0.11727212
0.14715485 -0.021597937 -0.12415288 -0.15720536 -0.09287029 0.11312665 0.0019268692 -0.102404326
-0.13255945 0.038724497 -0.09679281 0.00088848174 0.10963674 -0.14929804 0.112593874 -0.13817924
00000000: 80c4 1b3b e06b 1cbd 86b6 6fbd 0e06 a8bd
00000010: 40b5 903c 8ef8 c23d 64bd b8bd aa10 ab3d
00000020: 28d1 95bc 257e 103e 80a0 3f3b 5f7c 0c3e
00000030: 0868 efbc 589e a03c d4bb 52bd 8b99 2bbe
00000040: 55e6 a8bd 7951 333e e948 303e 06ad 82bd
00000050: 2eff ed3d 6361 283e e6c9 0bbe 7e95 ae3d
00000060: 3f0b 0d3e 0382 233e 9538 bbbd eedf 0abe
00000070: 8abb fabd 3a30 e33d 8a37 ca3d 8001 573d
00000080: 5007 62bc c7d2 c9bd a0e2 d5bc c456 113d
00000090: 13f8 10be ffee 063e 99dc 30be bad8 bd3d
000000a0: 6fba 023e 820e ebbd 9153 063e eefa cb3d
000000b0: 4289 b03d ae29 21be d4f9 913d 04de 01bd
000000c0: 08ab 02be 26cd 993d e1a2 18be 824f 56bd
000000d0: 483a d9bc a401 e6bd c00a afbd db24 033e
000000e0: e005 ccbb 2891 abbc aa89 2fbe 7016 0abe
000000f0: 5294 b93d f71c 293e b74a 283e 2863 e1bc
00000100: b407 23be b196 95bd bac1 e73d 98a4 02be
00000110: ac27 6ebd 4435 58bd bc83 373d 2fad d9bd
00000120: 7aea 943d 6077 c53c c04a 60bb 5ce7 82bd
00000130: 4d91 01be 7c32 71bd 0080 9437 10a6 3d3d
00000140: 78b6 183d e293 2fbe dedf e03d 20c2 4f3d
00000150: b4e2 a9bd b5f5 e1bd 62b6 dabd b346 b9bd
00000160: c66a 26be 7f3d 2c3e ea74 973d 0091 17be
00000170: e6c4 c63d a3c8 15be b8eb 38bd 86f9 e03d
00000180: 4fd8 033e b1b8 013e 0a0b 05be c459 f7bd
00000190: d936 b2bd 07e2 083e 42e1 dd3d a36e fbbd
000001a0: 938e 1abe b264 9d3d f05e 11bc 8743 2fbe
000001b0: dc3d 0bbe 6cf5 1a3d 70ab 00bd 5e2c f0bd
000001c0: c3af 163e 28ee b0bc dd43 febd 71fa 20be
000001d0: c732 bebd f2ae e73d 008f fc3a 5cb9 d1bd
000001e0: aabd 07be 949d 1e3d 4f3b c6bd 00e9 683a
000001f0: 3a89 e03d 96e1 18be 9e97 e63d dc7e 0dbe

lstm.bias_hh_l0 f4 [128]
0.16274656 0.080838904 0.06832221 -0.104336314 -0.12563485 0.09026016 0.17347075 0.102930054
0.0011365265 0.026916206 0.08096449 0.15458326 -0.104235455 0.17088021 0.0010455102 0.0031282902
-0.006367013 -0.028200164 0.01375559 0.01912649 0.029816851 0.033722445 -0.061074637 0.08435656
-0.1458036 -0.00034025311 -0.059555054 -0.12247484 0.17017941 -0.0698266 0.14038174 0.14251108
0.06979643 0.011911675 0.10722245 0.030323625 0.032073498 0.12719022 0.09394516 0.12815328
0.08374263 -0.007994264 -0.13365793 -0.1298072 -0.10884417 0.041884124 -0.1429025 -0.04474935
0.07614161 -0.1087997 -0.0033473223 0.1696911 -0.16691642 0.0050169677 -0.17334731 0.074949816
0.13938175 -0.15350237 0.087178126 0.052536324 -0.08494141 0.05051586 -0.0738712 -0.0731494
-0.11337542 -0.1570463 -0.085447595 -0.13498028 0.034206524 -0.13076055 -0.052301854 0.084477946
-0.06847715 0.12601767 0.17204471 -0.0737385 -0.14010413 0.11617227 0.17216127 0.07028861
0.14715178 0.15437917 0.003086716 0.15072884 0.13748182 -0.1015526 0.08760695 0.10334878
-0.13518155 -0.0131346285 0.14993758 0.012652189 -0.095772244 -0.14504871 0.1574776 0.057094052
0.17458297 0.042887002 -0.17652144 -0.0016881078 -0.11457448 0.024797902 -0.033963546 0.073593274
-0.14085743 0.061191663 -0.06270583 0.090483114 0.116804704 -0.10916272 -0.06529508 -0.16738193
-0.09002689 0.054628193 -0.030291334 0.10768591 0.067984655 0.10719971 0.14923753 -0.14024399
0.06477556 0.018300056 0.022445515 0.01968658 -0.11789647 -0.10760379 0.16007109 -0.046687365
00000000: 09a7 263e de8e a53d 84ec 8b3d 47ae d5bd
00000010: 6ca6 00be 52da b83d 51a2 313e fecc d23d
00000020: 80f7 943a 607f dc3c b6d0 a53d 134b 1e3e
00000030: 6679 d5bd 39fb 2e3e 8009 893a 0004 4d3b
00000040: 60a2 d0bb 0804 e7bc 205f 613c 28af 9c3c
00000050: 7842 f43c 8c20 0a3d 6629 7abd 22c3 ac3d
00000060: 8a4d 15be 0064 b2b9 00f0 73bd 17d4 fabd
00000070: 8343 2e3e 4001 8fbd 3bc0 0f3e 6dee 113e
00000080: 6ef1 8e3d 3029 433c 7297 db3d 4069 f83c
00000090: 805f 033d 273e 023e 5266 c03d 9d3a 033e
000000a0: 4281 ab3d 60fa 02bc a0dd 08be 2eec 04be
000000b0: b1e9 debd b08e 2b3d 0855 12be 184b 37bd
000000c0: 22f0 9b3d 61d2 debd c05e 5bbb 81c3 2d3e
000000d0: 23ec 2abe 6065 a43b f581 31be 4a7f 993d
000000e0: 17ba 0e3e ba2f 1dbe 728a b23d 5430 573d
000000f0: c3f5 adbd b8e9 4e3d c949 97bd 5acf 95bd
00000100: 5f31 e8bd bfd0 20be 26ff aebd 4538 0abe
00000110: 241c 0c3d 18e6 05be 783a 56bd c602 ad3d
00000120: bf3d 8cbd c70a 013e 7d2c 303e 3604 97bd
00000130: 7577 0fbe baeb ed3d 0b4b 303e 7af3 8f3d
00000140: f5ae 163e 9315 1e3e 804a 4a3b a958 1a3e
00000150: 09c8 0c3e cffa cfbd 466b b33d 86a8 d33d
00000160: 086d 0abe a032 57bc 3d89 193e 204b 4f3c
00000170: 3d24 c4bd a687 14be cf41 213e 74db 693d
00000180: e1c5 323e 48aa 2f3d 09c2 34be 8043 ddba
00000190: 06a6 eabd f824 cb3c 5c1d 0bbd 12b8 963d
000001a0: ee3c 10be 1ca4 7a3d ea6b 80bd 364f b93d
000001b0: 4e37 ef3d b490 dfbd 6db9 85bd 2b66 2bbe
000001c0: 0560 b8bd d0c1 5f3d 8825 f8bc 6e8a dc3d
000001d0: 8a3b 8b3d 868b db3d b9d1 183e 1f9c 0fbe
000001e0: 0ca9 843d 00ea 953c a8df b73c c045 a13c
000001f0: b473 f1bd 605f dcbd ade9 233e 403b 3fbd

lstm.weight_ih_l1 f4 [128, 32]
0.081291035 -0.116899356 0.11335452 0.07384412 0.08607431 0.014903322 -0.090038836 -0.12145588
0.016608045 0.0014497638 0.09951006 -0.12520248 -0.1054363 -0.14529976 0.019199088 0.1345091
0.12906767 0.066983625 -0.15965752 -0.098855704 0.07141012 -0.012342095 0.14585881 -0.11207899
0.040770233 -0.00052298605 0.099771485 0.044620886 -0.10857641 -0.14587243 -0.050353825 0.16624497
-0.14103481 0.01177755 0.06694698 -0.026388198 -0.0850217 0.106358394 0.17579712 0.12610622
0.06629251 0.13290365 -0.13876909 0.09175129 -0.11348909 -0.11185852 0.021556959 -0.1527906
-0.13952853 0.16413765 -0.14781073 -0.08994675 -0.14835903 0.06680144 0.15638365 -0.107483625
0.05569394 -0.06840699 0.07740207 0.026266634 0.15898229 -0.09201856 -0.0021319091 0.16664882
0.112099335 0.1662585 -0.026054174 0.16805463 -0.13741887 -0.039601073 0.012713909 -0.009236246
-0.035171226 -0.107672386 0.07205878 0.028230712 -0.16287443 -0.031359345 -0.05135511 0.15610151
-0.09906037 -0.16268247 -0.008407682 -0.13509205 -0.029562771 -0.101268426 -0.08065992 0.10065372
-0.13667291 0.0631966 -0.09246791 0.10435213 0.17290507 0.072362095 0.073871 -0.15298459
-0.01257506 0.012334555 -0.12762934 -0.021831349 -0.09656591 -0.1546288 -0.008216441 0.030085102
0.011757806 -0.025511652 -0.0244468 -0.05536113 0.015928268 -0.109826595 -0.07126724 0.06314799
-0.028212115 0.13980551 -0.13561252 -0.16578184 -0.06483458 -0.024002194 -0.13958882 9.985268e-05
-0.09522267 0.0053224564 0.14801066 -0.11110099 0.056940347 -0.05678828 -0.14752665 -0.009952381
0.05012381 0.07139741 0.02113153 0.17620014 -0.055436827 0.115311995 0.16905625 0.09529488
0.07005757 -0.033706725 0.03484273 -0.05752299 -0.03497368 -0.060633823 0.06638293 -0.15036845
0.10202347 -0.0043736845 0.15813963 -0.124162 -0.16793442 -0.035437033 0.15470107 -0.16718706
-0.028154656 0.0990255 -0.055664778 0.13232358 0.16747274 0.023730502 -0.008237839 0.031821012
-0.06884692 -0.054596223 0.1551912 0.035521105 -0.061595887 0.1349227 -0.16627745 -0.00517416
0.076736405 0.16102476 -0.12685472 0.1353422 -0.14444871 0.037275136 -0.053312853 -0.061569504
0.11960162 0.052667737 0.086484835 0.0028275847 -0.13301438 0.0025183111 0.13444631 -0.1432795
-0.08778478 0.056500465 -0.12158375 -0.034809127 -0.062461503 -0.04071483 0.015976101 0.0908743
0.013349697 -0.027136758 0.018498734 0.095033064 -0.12048511 0.14902933 -0.10503829 0.1360838
-0.04705459 0.07381697 -0.09628846 -0.17028412 -0.14907938 -0.08847745 0.1460724 0.07763876
-0.15762156 -0.17486839 0.15321524 0.058541805 0.15047471 0.14186777 0.108838126 -0.04803209
0.15755887 0.15000497 -0.114965975 0.10950984 -0.07641125 0.055525273 0.035995543 0.060725406
0.095764264 -0.12536383 -0.14460489 -0.13278678 0.042049676 0.06297989 0.1731271 0.08778207
-0.0180213 0.015106648 -0.15938579 0.08558975 0.14747594 -0.13698795 0.16158904 0.026264131
0.007213816 -0.03197682 -0.16347583 0.08004905 -0.14496084 0.014836341 0.040428072 -0.11842607
-0.13853198 -0.079834156 -0.07332778 -0.037572235 -0.057471782 0.0622126 -0.12360588 -0.14628588
00000000: ea7b a63d ee68 efbd 6a26 e83d 963b 973d
00000010: ba47 b03d 102d 743c 4866 b8bd dcbd f8bd
00000020: 980d 883c 0006 be3a eecb cb3d 1435 00be
00000030: fdee d7bd 76c9 14be 6847 9d3c c1bc 093e
00000040: 512a 043e b62e 893d 437d 23be dc74 cabd
00000050: 783f 923d 8036 4abc 035c 153e ab89 e5bd
00000060: b0fe 263d 0019 09ba fe54 cc3d 64c4 363d
00000070: 4f5d debd 955f 15be d03f 4ebd 1f3c 2a3e
00000080: 6e6b 10be a0f6 403c 801b 893d 102c d8bc
00000090: db1f aebd 6ed2 d93d 2904 343e fd21 013e
000000a0: 5ec4 873d e517 083e 7c19 0ebe 1ae8 bb3d
000000b0: f86c e8bd 1416 e5bd 3898 b03c 2475 1cbe
000000c0: 91e0 0ebe b313 283e b25b 17be 0036 b8bd
000000d0: 6eeb 17be 32cf 883d 0923 203e 6020 dcbd
000000e0: 541f 643d f718 8cbd fa84 9e3d 202d d73c
000000f0: 41cc 223e 3a74 bcbd 80b7 0bbb fda5 2a3e
00000100: 5694 e53d ab3f 2a3e 906f d5bc 8316 2c3e
00000110: 88b7 0cbe bc34 22bd 004e 503c a053 17bc
00000120: b40f 10bd 5783 dcbd 8e93 933d 1844 e73c
00000130: 8ec8 26be a872 00bd bc59 52bd 13d9 1f3e
00000140: 2ae0 cabd 3c96 26be 60c0 09bc 9255 0abe
00000150: a02d f2bc d265 cfbd 0731 a5bd 8a23 ce3d
00000160: fcf3 0bbe 386d 813d d15f bdbd 92b6 d53d
00000170: 070e 313e 9432 943d ae49 973d fea7 1cbe
00000180: a007 4ebc e016 4a3c 44b1 02be a8d7 b2bc
00000190: 59c4 c5bd 0357 1ebe 409e 06bc 0875 f63c
000001a0: d0a3 403c d0fd d0bc a844 c8bc 5ac2 62bd
000001b0: 007c 823c c4ec e0bd 8ff4 91bd bc53 813d
000001c0: 181d e7bc 2d29 0f3e 02de 0abe b7c2 29be
000001d0: fec7 84bd 40a0 c4bc 5ff0 0ebe 0068 d138
000001e0: 1a04 c3bd 0068 ae3b 1b90 173e ea88 e3bd
000001f0: 483a 693d d49a 68bd 3a11 17be 500f 23bc
00000200: a04e 4d3d ce38 923d 081c ad3c cf6d 343e
00000210: ba11 63bd b228 ec3d 151d 2d3e f629 c33d
00000220: 587a 8f3d 1010 0abd 40b7 0e3d 3a9d 6bbd
00000230: 9040 0fbd 2c5b 78bd c6f3 873d 30fa 19be
00000240: aef1 d03d 2051 8fbb 5bef 213e a648 febd
00000250: 00f7 2bbe 6c26 11bd f569 1e3e 1633 2bbe
00000260: 98a4 e6bc e2cd ca3d c000 64bd d57f 073e
00000270: f97d 2b3e 7866 c23c 00f8 06bc c056 023d
00000280: 9dff 8cbd 4aa0 5fbd 71ea 1e3e 947e 113d
00000290: f84b 7cbd 2d29 0a3e a344 2abe 008c a9bb
000002a0: fa27 9d3d ade3 243e 34e6 01be 2597 0a3e
000002b0: 5dea 13be d0ad 183d 945e 5abd 4e30 7cbd
000002c0: b2f1 f43d 20ba 573d f61e b13d 004f 393b
000002d0: ec34 08be 400a 253b 4bac 093e dcb7 12be
000002e0: 82c8 b3bd 086d 673d e700 f9bd 0494 0ebd
000002f0: a2d7 7fbd 98c4 26bd 50e0 823c 4e1c ba3d
00000300: b0b8 5a3c e84d debc a88a 973c b2a0 c23d
00000310: e6c0 f6bd 259b 183e 511e d7bd 8d59 0b3e
00000320: 50bc 40bd 5a2d 973d e232 c5bd f65e 2ebe
00000330: 44a8 18be aa33 b5bd 0194 153e 1201 9f3d
00000340: 8c67 21be b310 33be 75e4 1c3e 88c9 6f3d
00000350: 0b16 1a3e c945 113e 86e6 de3d 4cbd 44bd
00000360: 1d57 213e e79a 193e 4873 ebbd b246 e03d
00000370: 807d 9cbd 786e 633d 1070 133d 34bb 783d
00000380: 0e20 c43d 605f 00be 4e13 14be 42f9 07be
00000390: 483c 2c3d 9afb 803d 3b48 313e 16c7 b33d
000003a0: 68a1 93bc e081 773c 0736 23be ae49 af3d
000003b0: ef03 173e 9246 0cbe 9977 253e e027 d73c
000003c0: e061 ec3b 20fa 02bd 3566 27be c2f0 a33d
000003d0: 9d70 14be 2014 733c e897 253d 5e89 f2bd
000003e0: 54db 0dbe 1780 a3bd e02c 96bd 58e5 19bd
000003f0: 8867 6bbd a4d2 7e3d 1425 fdbd f7cb 15be

lstm.weight_hh_l1 f4 [128, 32]
-0.028251499 0.14283355 0.06899606 -0.15367202 -0.009565011 0.13888605 -0.14613493 0.120899424
-0.020366073 -0.097926155 -0.032646313 -0.021314144 -0.0045360327 0.008246347 0.07689597 0.014282048
0.035184607 -0.059636228 -0.024851218 0.048236474 -0.10512568 -0.02108249 0.03311315 -0.0740266
-0.024476469 0.1669427 0.042506427 -0.08981664 -0.13847096 -0.013277605 -0.12009494 -0.17365633
-0.09252675 0.14215873 -0.048119113 -0.0065223277 0.12085731 -0.13581012 0.1202407 0.12998925
-0.13639331 -0.096914716 -0.05991187 -0.009919956 -0.058576785 -0.110437386 0.07792689 -0.11466859
-0.12822312 0.16659187 0.15084983 0.09003465 0.119529024 -0.14641261 -0.13495086 -0.16967072
0.020792812 0.05281487 -0.12616315 -0.08039035 0.10181923 0.08652617 -0.013240054 -0.116016865
-0.054304317 0.02102378 -0.167435 0.09013374 0.16863842 0.0419008 0.0842966 0.073781535
0.13467859 -0.16161162 0.039431393 -0.17546558 -0.12925167 0.004353836 0.085307464 -0.07834817
-0.16223024 0.03756696 0.06262475 -0.17575756 0.14751811 -0.17521757 0.17201476 0.058199674
0.13844277 0.049558073 -0.14040557 -0.030176893 -0.07049479 0.056469113 0.14893593 0.1575488
-0.11380376 0.16938715 0.020675346 -0.06721666 0.17478402 -0.082222745 -0.10868153 0.15304516
-0.11040687 -0.16126041 -0.051178604 -0.1549307 0.028275177 -0.10983458 0.16591017 0.071909964
-0.12971938 0.086200014 0.08892594 0.14505477 -0.0015379637 0.10671924 0.0880727 0.042119414
0.12043883 0.11757822 0.080757394 -0.033166453 0.15052275 0.16240256 0.12470053 -0.14587349
-0.04002522 -0.002278 -0.09492625 -0.089338504 0.16447501 0.13295503 -0.054153092 -0.004760757
-0.03824222 0.040586933 -0.017860278 -0.08705071 0.11599113 0.029305905 -0.06795804 0.017740592
0.11755003 0.12739028 -0.06903218 -0.09338846 0.004450187 -0.11990121 -0.1608018 0.13726555
0.04046066 0.109430626 -0.01613234 0.10843553 -0.08887683 0.15086032 -0.025645837 0.058515757
-0.07784647 0.16670676 -0.047482297 -0.06301493 -0.015189409 -0.14865406 0.048654556 -0.10606792
-0.009874165 0.007029876 0.09723361 -0.13505581 0.1196029 -0.1535109 -0.0058368593 -0.10278422
-0.13493623 -0.15330777 0.08020757 0.16258611 -0.10102256 0.056642562 0.07424103 -0.0046812296
0.005908981 -0.08827074 -0.0795031 0.06790291 -0.094809145 0.116052136 0.089786306 0.05706209
-0.0058466494 -0.033444643 -0.0036566854 -0.007504031 0.12293811 -0.06108161 -0.004510939 0.098110035
0.14407758 0.13795881 0.022822753 0.16518606 -0.16087651 0.12171759 -0.021103114 0.075510874
0.02468212 -0.17583263 -0.12381743 0.10710196 0.039500937 0.122461274 -0.15773481 0.104871854
0.006140992 0.10411303 -0.17674397 -0.102484904 0.09244843 -0.15873322 -0.14481522 0.013512284
-0.13366814 -0.107103676 0.10781254 -0.12359652 0.08181362 0.016026676 0.14774932 -0.005990833
-0.025561407 0.06731503 0.05432765 0.12017767 -0.14588402 -0.08218741 0.15837668 0.07201916
0.00843367 -0.14105216 0.00048539042 -0.1747332 0.075124964 0.043339536 0.10739927 -0.093015224
0.13469113 -0.16300102 -0.017616153 -0.103471145 0.09312986 -0.10368706 -0.03263654 0.03990774
00000000: b06f e7bc f542 123e ce4d 8d3d 335c 1dbe
00000010: 90b6 1cbc 2538 0e3e 65a4 15be 1e9a f73d
00000020: c0d6 a6bc 828d c8bd 24b8 05bd 009b aebc
00000030: 00a3 94bb b01b 073c a27b 9d3d 40ff 693c
00000040: bc1d 103d 1e45 74bd c894 cbbc 9c93 453d
00000050: 224c d7bd 30b5 acbc a8a1 073d 429b 97bd
00000060: e082 c8bc 07f3 2a3e 381b 2e3d c9f1 b7bd
00000070: 55cb 0dbe 508a 59bc 56f4 f5bd f7d2 31be
00000080: aa7e bdbd 0f92 113e 8c18 45bd 40b9 d5bb
00000090: 0a84 f73d cf11 0bbe c240 f63d e71b 053e
000000a0: b0aa 0bbe 397b c6bd 2666 75bd 5087 22bc
000000b0: 36ee 6fbd ff2c e2bd 2298 9f3d 5ed7 eabd
000000c0: ec4c 03be 0f97 2a3e 6178 1a3e 1664 b83d
000000d0: a2cb f43d 30ed 15be 8f30 0abe 29be 2dbe
000000e0: b055 aa3c 6854 583d ea30 01be b2a3 a4bd
000000f0: 9a86 d03d a234 b13d d0ec 58bc 409a edbd
00000100: 346e 5ebd 103a ac3c 1574 2bbe 0a98 b83d
00000110: 8daf 2c3e 2ca0 2b3d b2a3 ac3d c61a 973d
00000120: 2fe9 093e 847d 25be d082 213d 40ad 33be
00000130: 8d5a 04be a0aa 8e3b aeb5 ae3d 0175 a0bd
00000140: af1f 26be d0df 193d 6841 803d caf9 33be
00000150: fd0e 173e 3c6c 33be a324 303e c862 6e3d
00000160: f1c3 0d3e 68fd 4a3d 7ac6 0fbe 8835 f7bc
00000170: 935f 90bd 284c 673d a982 183e 7954 213e
00000180: f211 e9bd d373 2d3e 585f a93c e3a8 89bd
00000190: 95fa 323e 6664 a8bd 6c94 debd dfb7 1c3e
000001a0: ff1c e2bd 7321 25be a8a0 51bd 27a6 1ebe
000001b0: 58a1 e73c f4f0 e0bd 5be4 293e 8845 933d
000001c0: 28d5 04be a289 b03d ce1e b63d 3d89 143e
000001d0: 8095 c9ba 9e8f da3d 765f b43d 6885 2c3d
000001e0: a2a8 f63d dacc f03d 2264 a53d 8cd9 07bd
000001f0: a322 1a3e db4c 263e fe62 ff3d dc5f 15be
00000200: 7cf1 23bd 804a 15bb b268 c2bd 1bf7 b6bd
00000210: 236c 283e 5d25 083e a2cf 5dbd 2000 9cbb
00000220: e0a3 1cbd 7c3e 263d b84f 92bc a547 b2bd
00000230: c28c ed3d f012 f03c 962d 8bbd b854 913c
00000240: 12be f03d 9972 023e be60 8dbd 7342 bfbd
00000250: e0d2 913b c48e f5bd 3aa9 24be 578f 0c3e
00000260: 14ba 253d 2a1d e03d f827 84bc 7213 de3d
00000270: 0e05 b6bd 217b 1a3e 3817 d2bc 38ae 6f3d
00000280: f86d 9fbd 2db5 2a3e cc7c 42bd f90d 81bd
00000290: 00dd 78bc c538 18be 004a 473d 233a d9bd
000002a0: 40c7 21bc e05a e63b 6a22 c73d 124c 0abe
000002b0: 5ef2 f43d f631 1dbe 2043 bfbb 8880 d2bd
000002c0: b92c 0abe b6fc 1cbe de43 a43d f97c 263e
000002d0: eae4 cebd 0802 683d ae0b 983d 0065 99bb
000002e0: 20a0 c13b 4ac7 b4bd 85d2 a2bd ae10 8b3d
000002f0: 4c2b c2bd beac ed3d e2e1 b73d f0b9 693d
00000300: 4095 bfbb 40fd 08bd 00a5 6fbb 60e4 f5bb
00000310: fac6 fb3d b630 7abd 80d0 93bb eaed c83d
00000320: 1389 133e 1345 0d3e c8f6 ba3c 8926 293e
00000330: d0bc 24be 1247 f93d 70e0 acbc 72a5 9a3d
00000340: 2832 ca3c 780d 34be fe93 fdbd 4658 db3d
00000350: bccb 213d facc fa3d 3c85 21be 0ec7 d63d
00000360: 603a c93b 3639 d53d 5ffc 34be 9be3 d1bd
00000370: 9a55 bd3d f68a 22be 714a 14be a062 5d3c
00000380: 4de0 08be 2c59 dbbd d2cc dc3d 2c20 fdbd
00000390: e68d a73d 604a 833c 994b 173e c04e c4bb
000003a0: 2866 d1bc 76dc 893d ac86 5e3d b61f f63d
000003b0: 9f62 15be df51 a8bd 7f2d 223e c87e 933d
000003c0: 602d 0a3c fa6f 10be 007c fe39 43ed 32be
000003d0: 1edb 993d cc84 313d 26f4 db3d c47e bebd
000003e0: 79ec 093e bde9 26be c04f 90bc aee8 d3bd
000003f0: deba be3d e259 d4bd e4ad 05bd 4c76 233d

lstm.bias_ih_l1 f4 [128]
0.040684566 0.17192937 0.052268267 0.042324856 -0.061837792 -0.10859871 -0.035090998 -0.07798364
0.06972511 0.10532831 0.024744302 -0.021238372 -0.06329772 0.1765152 -0.15205805 0.11361681
-0.092172146 0.1623825 -0.008314371 0.07432963 0.12809373 -0.083872266 -0.015503526 0.13018526
-0.14704815 -0.14904712 0.1268044 0.01676789 -0.13764572 0.05791013 -0.17247087 0.11145343
0.1539541 0.1464412 0.105765656 0.041115373 -0.06885031 -0.15064207 -0.08930584 -0.13385826
-0.16685823 0.091824606 -0.15475853 -0.08703396 -0.048796415 -0.09809856 0.00054603815 -0.12412481
0.17177267 -0.12736228 -0.10735681 -0.12640285 -0.03165768 -0.12895924 0.06204647 0.14711295
-0.044271365 0.02272655 -0.051863194 -0.14923275 -0.13312668 -0.1351273 0.15445061 -0.12612209
0.00814043 0.16340666 -0.105886936 -0.090217374 0.059988096 -0.1648323 -0.11502956 -0.10358269
0.057635218 0.1103221 0.058268443 -0.1268819 -0.16797014 -0.07454717 -0.13368323 -0.17467436
0.05339037 -0.044489473 -0.09966806 -0.17302632 -0.15640998 0.08607419 -0.09859048 0.08669378
-0.08007564 0.12786977 -0.052661642 0.12394826 -0.1406728 0.09907372 -0.051722676 -0.12933213
0.1544251 -0.05668637 0.07005973 -0.13815416 -0.096952714 0.09883757 0.158356 0.041022882
0.010946572 -0.05655104 -0.1068171 0.025817648 0.033856183 0.01347743 0.005133629 -0.09083115
-0.12350415 0.1688958 0.1585977 0.13287295 -0.10924061 0.16858204 -0.08129075 0.037795395
-0.1608682 -0.12437162 -0.061916478 -0.076160535 -0.16201 -0.1747408 -0.052790254 0.038532436
00000000: dca4 263d 410e 303e 4017 563d d45c 2d3d
00000010: a049 7dbd 0069 debd 94bb 0fbd e3b5 9fbd
00000020: 0acc 8e3d 5eb6 d73d 90b4 ca3c 18fc adbc
00000030: 3ca2 81bd 67c0 343e 1bb5 1bbe eeaf e83d
00000040: c0c4 bcbd 9947 263e 0039 08bc 223a 983d
00000050: 012b 033e 39c5 abbd 8002 7ebc 494f 053e
00000060: ca93 16be cf9f 18be 03d9 013e d05c 893c
00000070: 00f3 0cbe 2c33 6d3d 349c 30be b241 e43d
00000080: 25a6 1d3e aff4 153e aa9b d83d 9868 283d
00000090: 6401 8dbd ea41 1abe fbe5 b6bd 2412 09be
000000a0: e2dc 2abe 8a0e bc3d 0579 1ebe dc3e b2bd
000000b0: c0de 47bd e6e7 c8bd 0024 0f3a 2635 febd
000000c0: 2de5 2f3e 426b 02be e3dd dbbd c06f 01be
000000d0: 7cab 01bd e40d 04be 7024 7e3d c7a4 163e
000000e0: e455 35bd 082d ba3c 806e 54bd 78d0 18be
000000f0: 5c52 08be d05e 0abe 4d28 1e3e 2626 01be
00000100: 705f 053c 1354 273e 40db d8bd e3c3 b8bd
00000110: 14b6 753d ccc9 28be 9e94 ebbd 2923 d4bd
00000120: e812 6c3d 8ef0 e13d e4aa 6e3d 54ed 01be
00000130: 5d00 2cbe 30ac 98bd 42e4 08be d6dd 32be
00000140: dcaf 5a3d 983a 36bd c51e ccbd d02d 31be
00000150: f029 20be aa47 b03d cee9 c9bd 828c b13d
00000160: b2fe a3bd 4bf0 023e bcb3 57bd 96d8 fd3d
00000170: 880c 10be 2ae7 ca3d 28db 53bd a46f 04be
00000180: 9d21 1e3e f82f 68bd 7a7b 8f3d 4978 0dbe
00000190: 258f c6bd 5a6b ca3d 1328 223e 9c07 283d
000001a0: 4059 333c 10a2 67bd ecc2 dabd 887f d33c
000001b0: c8ac 0a3d 70d0 5c3c 0038 a83b af05 babd
000001c0: beef fcbd 05f3 2c3e 6f67 223e d90f 083e
000001d0: 8ab9 dfbd c5a0 2c3e c47b a6bd 58cf 1a3d
000001e0: a2ba 24be 8cb6 febd 229c 7dbd 0efa 9bbd
000001f0: f3e5 25be 41ef 32be 983a 58bd 30d4 1d3d

lstm.bias_hh_l1 f4 [128]
-0.13542435 0.026922494 -0.11675031 -0.027867362 0.01687792 -0.16293009 0.030275285 -0.1629081
-0.08158079 0.011283189 -0.07729112 -0.14383692 0.058978796 -0.06186203 0.06431849 -0.15234026
-0.01690647 -0.17409189 0.06780018 -0.13854963 -0.17401491 -0.13863921 -0.1562998 0.14149953
0.07343392 0.16583796 0.05627854 -0.13347456 0.07819845 0.022605777 0.091595486 -0.07098756
-0.0037377477 0.11398433 0.12661542 0.011966646 0.019955799 0.15343468 0.005620837 -0.16721061
0.008255824 -0.01927729 0.15260427 0.03317505 0.034999713 -0.10211699 -0.0056113005 0.10996391
0.00700742 -0.11259309 0.073935404 0.10199909 0.12383102 0.1725931 -0.17615816 0.12386812
-0.10904311 -0.021132395 0.15452917 0.11623217 -0.044376224 -0.13387212 -0.11490044 -0.14048697
0.040603414 -0.105270475 0.14842008 -0.030585796 -0.0014625788 0.17614998 -0.05588244 -0.008746147
-0.055002272 0.07483448 -0.08249259 0.15326156 -0.14097935 -0.053489976 0.10560174 -0.102785856
0.04490064 -0.0144696385 -0.038543925 -0.0446153 0.059139088 0.150481 -0.09291568 -0.17372012
0.08558117 0.0091778785 -0.0713366 -0.09491087 0.12789841 0.11539225 -0.15198407 0.063688874
-0.014690474 -0.10679082 0.058029532 0.17226283 0.15132456 0.16408502 -0.07688032 0.07676454
0.09059872 0.00067964196 0.06331661 0.058704823 0.014741302 -0.08756115 0.045822933 0.030855134
0.10581498 -0.03642051 0.15261267 0.12610118 0.00032958388 -0.047271863 0.012400493 -0.1423384
-0.13179602 0.16595255 0.13249631 0.14857103 -0.16765362 -0.007952422 -0.13237536 0.08885498
00000000: aeac 0abe 908c dc3c c91a efbd 184a e4bc
00000010: 9043 8a3c 25d7 26be e003 f83c 62d1 26be
00000020: d413 a7bd 20dd 383c cf4a 9ebd fc49 13be
00000030: c093 713d 0a63 7dbd 6ab9 833d 16ff 1bbe
00000040: 707f 8abc 2545 32be d2da 8a3d f4df 0dbe
00000050: f730 32be 70f7 0dbe 0e0d 20be 41e5 103e
00000060: 8664 963d 6dd1 293e 5484 663d 8ead 08be
00000070: 8226 a03d c02f b93c 6a96 bb3d ed61 91bd
00000080: 00f5 74bb 9e70 e93d 79a7 013e c00f 443c
00000090: 587a a33c fb1d 1d3e 002f b83b 4239 2bbe
000000a0: 7043 073c 68eb 9dbc 4b44 1c3e 90e2 073d
000000b0: dc5b 0f3d b622 d1bd 00df b7bb c234 e13d
000000c0: 809e e53b 3597 e6bd 726b 973d e6e4 d03d
000000d0: 1e9b fd3d 3fbc 303e ce62 34be 92ae fd3d
000000e0: fe51 dfbd d81d adbc e53c 1e3e 220b ee3d
000000f0: d8c3 35bd c615 09be ec50 ebbd d1db 0fbe
00000100: c44f 263d 0c98 d7bd 6ffb 173e 108f fabc
00000110: 00b4 bfba a960 343e fce4 64bd 004c 0fbc
00000120: 104a 61bd d242 993d e0f1 a8bd 99f0 1c3e
00000130: e45c 10be 4e18 5bbd ba45 d83d 6481 d2bd
00000140: bce9 373d 1012 6dbc 3ce0 1dbd 88be 36bd
00000150: d43b 723d b117 1a3e 934a bebd b0e3 31be
00000160: 2e45 af3d d05e 163c ec18 92bd a160 c2bd
00000170: cdf7 023e c652 ec3d b6a1 1bbe 506f 823d
00000180: 50b0 70bc 25b5 dabd 60b0 6d3d ab65 303e
00000190: d3f4 1a3e e705 283e 6e73 9dbd ba36 9d3d
000001a0: d28b b93d 002a 323a 24ac 813d 7874 703d
000001b0: 8085 713c 4353 b3bd d4b0 3b3d e8c3 fc3c
000001c0: 86b5 d83d ac2d 15bd 7f46 1c3e ab20 013e
000001d0: 00cc ac39 24a0 41bd 702b 4b3c 28c1 11be
000001e0: 89f5 06be 77ef 293e 1dad 073e 0123 183e
000001f0: 64ad 2bbe e04a 02bc 688d 07be 9af9 b53d

fc.weight f4 [10, 32]
-0.10892119 -0.16404244 0.15909998 0.103033945 0.07737963 0.1743323 -0.02138497 0.05787243
-0.17634913 0.027276486 -0.13548116 0.08336674 0.12244235 0.08811216 -0.02618733 0.11728649
0.11599837 -0.15455085 -0.036806062 0.17615287 0.1538596 -0.0086064935 -0.060894586 0.15668546
0.17113636 -0.1274261 -0.070684165 0.07063252 -0.078449294 0.119925156 0.0836315 -0.104438685
0.05304198 -0.13449562 0.04527682 0.018743023 -0.1250056 -0.09281438 0.0028284788 -0.122394
-0.16423108 -0.0017144531 -0.0014502555 0.04099989 0.05056061 0.022918925 -0.10404373 0.0764157
-0.06262029 0.068624064 -0.14965524 0.08620463 0.044547528 -0.101036765 -0.04624912 0.012827054
-0.15425976 -0.101834856 0.036463395 0.08787249 -0.027518854 -0.06434182 0.016593546 -0.0096201
0.019172028 0.05671449 0.013274744 0.13550128 -0.12251992 -0.0077427775 0.1071039 -0.15162104
-0.13468328 -0.091136724 -0.03946252 0.10144515 0.13175489 -0.03854908 0.1284828 0.08914514
0.12884225 -0.14290613 -0.14896095 0.114879385 0.03263578 0.1612217 -0.016161755 0.0482101
0.05551377 -0.019308731 0.07547559 0.09110154 -0.13398713 0.066979975 0.13938807 0.04192914
-0.08515737 0.06363398 0.107140884 0.15199901 -0.05258909 -0.15913129 -0.051533684 -0.1391365
-0.07049583 -0.007042408 0.07504566 -0.10476172 -0.15887259 -0.10866111 0.10598402 0.17601301
-0.0642492 -0.034238264 0.1054133 0.097989455 0.058582217 -0.09502671 0.0068671405 0.11979656
0.16213225 -0.06610925 -0.09476226 -0.15183769 0.1321327 -0.04059115 0.0096845925 0.12993483
-0.06181421 -0.09672105 0.07911374 0.14194475 0.10221307 -0.041898146 -0.107977994 -0.13489136
0.02180992 -0.05543389 -0.089066215 -0.089771524 -0.14666238 -0.09990249 0.10583715 -0.011676908
0.15740202 0.07614453 -0.16275376 -0.012363672 0.14425646 0.14766817 0.108918294 0.10725783
-0.03269106 -0.14647985 -0.06065406 -0.04518567 -0.104836255 -0.058337852 0.15143152 -0.13347542
-0.14807828 -0.1376444 -0.13651016 0.15279903 -0.034124687 0.15761389 0.07164496 -0.04306911
0.11462583 0.16987608 -0.079638936 -0.06269101 -0.10247195 0.06555955 -0.015837565 0.0114516765
0.013674527 -0.16870521 -0.12828432 0.116132274 -0.090989545 -0.12371954 0.15938343 0.13192333
0.09128849 -0.07024324 0.13666578 -0.025175497 -0.01948008 -0.044231817 0.15022768 0.018444583
-0.16826239 0.029218182 -0.006580636 -0.011131465 0.12690826 -0.09394781 0.007088959 0.052310452
-0.027035415 0.12548675 0.004413113 0.113808975 -0.022935465 0.11056183 -0.1507479 0.06653343
0.11191155 -0.071396045 0.14494784 0.07999797 -0.10139318 0.01590702 0.12470566 0.030799523
-0.019158855 -0.06533415 0.099941775 -0.10182516 0.15676461 -0.13682622 -0.12246915 -0.093995735
0.06177984 0.09186171 0.0436545 -0.09542502 -0.022964507 -0.07801605 0.008287415 -0.075426966
0.0540424 0.011445105 0.010232165 0.08378376 -0.12789327 0.08295043 -0.043583363 -0.13056788
-0.14376241 0.12312819 -0.15013409 0.15540208 -0.06526924 0.08284201 -0.0118068755 0.091580406
-0.13282269 -0.013604671 0.058497712 -0.12676568 0.11442147 0.13421266 0.002282247 -0.14733158
00000000: 1312 dfbd befa 27be 1beb 223e 7603 d33d
00000010: 3679 9e3d 2b84 323e 882f afbc a40b 6d3d
00000020: de94 34be f072 df3c 93bb 0abe 2ebc aa3d
00000030: 0ec3 fa3d 2674 b43d d086 d6bc e633 f03d
00000040: 8e90 ed3d 9442 1ebe f4c1 16bd 6b61 343e
00000050: 5f8d 1d3e 4002 0dbc 9a6c 79bd 2772 203e
00000060: 5f3e 2f3e fd7b 02be dcc2 90bd c8a7 903d
00000070: 06aa a0bd 529b f53d fe46 ab3d f3e3 d5bd
00000080: 8c42 593d 38b9 09be 3074 393d f88a 993c
00000090: 7801 00be 7715 bebd 005e 393b b5a9 fabd
000000a0: 312c 28be 80b7 e0ba 8016 beba 80ef 273d
000000b0: a418 4f3d 78c0 bb3c e114 d5bd d67f 9c3d
000000c0: 113f 80bd c68a 8c3d 393f 19be 0e8c b03d
000000d0: 7877 363d 5dec cebd b86f 3dbd 9028 523c
000000e0: 45f6 1dbe cb8e d0bd a45a 153d 7ef6 b33d
000000f0: 386f e1bc a5c5 83bd 30ef 873c a09d 1dbc
00000100: a80e 9d3c 744d 683d 507e 593c d9c0 0a3e
00000110: b9eb fabd 20b7 fdbb 4a59 db3d 8c42 1bbe
00000120: 6aea 09be e4a5 babd 74a3 21bd 7ac2 cf3d
00000130: c1ea 063e a4e5 1dbd ff90 033e ba91 b63d
00000140: 39ef 033e fc55 12be 3889 18be e245 eb3d
00000150: 18ad 053d 4d17 253e a865 84bc f477 453d
00000160: 6862 633d 582d 9ebc f292 9a3d 7293 ba3d
00000170: ec33 09be cc2c 893d bfbb 0e3e e4bd 2b3d
00000180: fd66 aebd 8852 823d ae6c db3d a1a5 1b3e
00000190: a867 57bd 50f3 22be fc14 53bd cc79 0ebe
000001a0: 1e60 90bd 00c4 e6bb 8ab1 993d 508d d6bd
000001b0: 7faf 22be b789 debd 260e d93d c13c 343e
000001c0: 1695 83bd 6c3d 0cbd eee2 d73d b2ae c83d
000001d0: e8f3 6f3d 5d9d c2bd c005 e13b e657 f53d
000001e0: ff05 263e 4964 87bd b712 c2bd 577b 1bbe
000001f0: cb4d 073e e842 26bd 20ac 1e3c a30d 053e
00000200: e630 7dbd b015 c6bd 6206 a23d f759 113e
00000210: 1655 d13d 649d 2bbd 9123 ddbd f620 0abe
00000220: b8aa b23c a60e 63bd 5968 b6bd 22da b7bd
00000230: aa2e 16be ad99 ccbd 26c1 d83d 8050 3fbc
00000240: ff2d 213e aaf1 9b3d eca8 26be 0091 4abc
00000250: f7b7 133e 5336 173e 8e10 df3d fea9 db3d
00000260: 10e7 05bd d0fe 15be 6470 78bd 9c14 39bd
00000270: 64b4 d6bd acf3 6ebd dd10 1b3e c8ad 08be
00000280: d5a1 17be a7f2 0cbe 52c9 0bbe 5977 1c3e
00000290: 54c6 0bbd 8965 213e 98ba 923d 3c69 30bd
000002a0: f2c0 ea3d fff3 2d3e bd19 a3bd 2564 80bd
000002b0: d0dc d1bd 1644 863d c8bd 81bc d09f 3b3c
000002c0: 200b 603c 0fc1 2cbe f75c 03be c2d6 ed3d
000002d0: ba58 babd ac60 fdbd 6935 233e e916 073e
000002e0: 76f5 ba3d b0db 8fbd 1df2 0b3e d83c cebc
000002f0: b094 9fbc 6c2c 35bd 49d5 193e 1819 973c
00000300: fa4c 2cbe f85a ef3c 60a2 d7bb c060 36bc
00000310: 3df4 013e b667 c0bd 804a e83b 7c43 563d
00000320: 6079 ddbc 997f 003e e09b 903b ae14 e93d
00000330: 28e3 bbbc 3e6e e23d a85d 1abe ae42 883d
00000340: e231 e53d 1738 92bd 356d 143e fad5 a33d
00000350: 3aa7 cfbd 704f 823c ae65 ff3d 484f fc3c
00000360: 08f3 9cbc e9cd 85bd 46ae cc3d b689 d0bd
00000370: e786 203e 2c1c 0cbe 1bd1 fabd d680 c0bd
00000380: dc0c 7d3d fe21 bc3d 10cf 323d 316e c3bd
00000390: 1020 bcbc e1c6 9fbd f0c7 073c 7479 9abd
000003a0: 905b 5d3d 4084 3b3c d0a4 273c d296 ab3d
000003b0: 74f6 02be eae1 a93d 7884 32bd 96b3 05be
000003c0: 7436 13be a22a fc3d c0bc 19be b921 1f3e
000003d0: e1ab 85bd 12a9 a93d a071 41bc 828e bb3d
000003e0: ac02 08be 20e6 5ebc 4c9b 6f3d ddce 01be
000003f0: ce55 ea3d 0b6f 093e c091 153b 17de 16be

fc.bias f4 [10]
0.10112156 -0.1455831 0.03655508 -0.13855198 0.15056391 -0.08732024 0.14394532 0.09083976
0.15749608 -0.15588512
00000000: d218 cf3d bc13 15be c8ba 153d 92e0 0dbe
00000010: 6d2d 1a3e f4d4 b2bd 6766 133e 320a ba3d
00000020: a746 213e 59a0 1fbe
